Long Term Stock Market Classification/code_and_data/cnn.pth (torch_old, 30505 bytes, 21 tensors)

weight f4 [2, 1, 5, 5]
000000 13 9a 6e 3c 19 8d 0f bd 46 18 4c bc 8f 09 a6 3d
       0.014563101 -0.03504667 -0.012456959 0.08107292
000010 c8 7e 13 3e 1b 8b 81 be 12 10 00 be d3 c8 13 3e
       0.14403832 -0.25301442 -0.1250613 0.14432077
000020 e6 c6 ff bd be 27 f0 bc bf 5b 0f 3d c8 a0 5a 3d
       -0.12489109 -0.029315826 0.034999605 0.05337599
000030 b7 7f cf 3d 33 60 d7 3d 14 3a 97 3d 9f 10 09 3e
       0.101317815 0.105163954 0.073841244 0.13385247
000040 6e dd c7 3d 1e 55 99 bd ce 4e 30 be 8f 6c cc 3d
       0.09759031 -0.07486938 -0.17217562 0.099816434
000050 c9 02 c9 bd c6 71 84 bd 86 b3 4f be 2c 21 1f be
       -0.09814984 -0.06467013 -0.20283327 -0.15539998
000060 5b 94 c9 3c e8 ca 0e bd 3d b8 d0 bc 40 8c 07 3d
       0.024606874 -0.034861475 -0.025478477 0.033092737
000070 64 7a 42 3d a8 ad 3e 3e 26 86 66 bb 63 99 d4 bd
       0.047480002 0.18620932 -0.0035175174 -0.10380819
000080 97 c6 d5 bd 2c 4a 09 3d 29 80 18 3c bf b8 b3 3d
       -0.10438269 0.033518 0.0093078995 0.08775472
000090 79 14 e3 3d f9 5a a2 bc cf 2b 0d 3e f9 68 9b 3d
       0.11087889 -0.01981877 0.13786243 0.07588381
0000a0 6d f9 8e 3c 99 b9 1f 3d df 84 21 3e 70 6c 63 3e
       0.01745292 0.03899536 0.15773343 0.22209334
0000b0 57 a8 07 3e 85 ae 05 be 27 a6 6d 3c 5f cf 09 be
       0.1324781 -0.13054855 0.014504946 -0.13458012
0000c0 d9 c5 b6 3d 42 0a f9 3d
       0.08924455 0.1216016

bias f4 [2]
000000 36 29 e3 bc 30 d1 ba 3c
       -0.027729612 0.022804826

weight f4 [2]
000000 5f 2e 80 3f 22 55 7f 3f
       1.0014151 0.9973928

bias f4 [2]
000000 53 4e 78 bb cc 69 17 3c
       -0.0037888482 0.009241533

running_mean f4 [2]
000000 d5 17 fb bd c1 d5 9c 3e
       -0.12260405 0.3063183

running_var f4 [2]
000000 1b 48 3c 3d cb 73 19 3d
       0.045967203 0.037463944

weight f4 [4, 2, 5, 5]
000000 6e b3 b2 3d 8b 0f ba bd 12 81 f8 3c 6d fd 55 3d
       0.0872563 -0.09084996 0.030334983 0.05224364
000010 88 eb d1 3d c2 fa 07 3d dc 32 57 3e 0a 85 26 3e
       0.10250002 0.033198126 0.21015495 0.16261688
000020 91 e5 d5 bd cb c8 af 3c b2 9f 10 bd 45 28 e8 bd
       -0.10444177 0.02145805 -0.035308547 -0.11335806
000030 a7 89 c7 bd 76 20 b2 3d cd 59 45 3d 21 e1 3b bd
       -0.09743052 0.08697598 0.048181344 -0.045868997
000040 41 18 c7 3d a7 b4 37 3d 1d 99 df 3d 0c 2a e5 3c
       0.09721423 0.044850018 0.10917876 0.027974151
000050 14 4e 6b 3d 7f a8 bc 3c 0d 71 90 bd 37 7b 9e 3b
       0.057447508 0.023029564 -0.07052813 0.0048364657
000060 28 ba ac 3d f9 5a 13 3d 3a d3 cb 3d 63 f7 d0 3c
       0.08433944 0.03597543 0.09952398 0.025508588
000070 1a 62 87 bd 77 83 5c 3d f7 1c c7 3d 7f f2 b5 bd
       -0.06610508 0.053836312 0.097223215 -0.08884143
000080 79 e7 5f bd 2d 78 88 3d 3a 10 a7 bd 4a 72 ec 3d
       -0.05466411 0.06663547 -0.08157392 0.115452364
000090 a6 1c 28 bd 8d 42 e6 3c 68 5a d4 bc 93 0a 18 3d
       -0.041042946 0.028107906 -0.025922015 0.03711946
0000a0 a9 d5 6c 3c 7d 88 1f bd 51 d1 36 bd b6 3c a9 3d
       0.014455237 -0.038948525 -0.044633213 0.08263533
0000b0 e3 cb 14 bd 8f dd f7 3d 85 1e 18 be c7 8a 87 bd
       -0.036327254 0.12102806 -0.14855392 -0.066182666
0000c0 7f b7 c8 3d 5f 9f b4 3d b0 17 e4 ba ab ef e7 3b
       0.09800624 0.0881946 -0.0017402079 0.007078131
0000d0 4a 89 99 bd 6a d2 e9 bc f7 af a3 bd 03 6e a0 3c
       -0.07496889 -0.028542716 -0.07992547 0.019583708
0000e0 97 78 0c bd e0 65 81 3d e4 ae ea 3c c1 f2 d2 3d
       -0.03429469 0.06318259 0.028647847 0.10300208
0000f0 6a 50 31 3c 16 da 2b be 1a ac f5 bd c5 0f 69 3d
       0.010822395 -0.16782412 -0.119957164 0.056899805
000100 78 ee 58 3d 8c e6 1e 3c 1e c5 ce bd a8 4a 38 be
       0.052961797 0.009698521 -0.10096191 -0.17997229
000110 2b 71 a1 3d ee 8b 41 be fa 97 45 be 05 37 56 3e
       0.07882913 -0.18901035 -0.19296256 0.20919426
000120 ac 8b 78 bd 60 dd 2c 3d 5b b6 3c bc 6f 8b 82 3c
       -0.060680076 0.042203307 -0.011518086 0.015935628
000130 10 c0 01 3e 65 06 72 be e3 bc bd 3d 94 9e ba bd
       0.12670922 -0.23635252 0.09264543 -0.091122776
000140 f1 41 10 be 4c 58 a4 3e 2a 84 e5 bd ef 5c 54 bd
       -0.14087655 0.32098615 -0.11206849 -0.05184644
000150 76 0e 79 be d8 b6 83 3d e8 87 92 bd 21 ab da bc
       -0.24321923 0.06431359 -0.07154828 -0.026692929
000160 c4 f2 02 bd 97 33 33 3e bc 12 3d bd 35 73 5f bb
       -0.0319698 0.17500149 -0.046160445 -0.0034095768
000170 da 07 fd 3c 7d ba 20 3c 77 a3 12 3e 8e cc a7 bc
       0.030887533 0.009810087 0.1432017 -0.020483281
000180 fb 30 c7 3d 6a d2 83 bd db 39 23 3e e3 f9 34 be
       0.09726139 -0.06436618 0.15940039 -0.17673449
000190 20 ad 99 bc 12 58 9d bb eb cb 03 bd 10 24 cb 3d
       -0.01875931 -0.0048017586 -0.032176893 0.09918988
0001a0 f5 b3 5c 3c 08 3b 69 bc 3e 3f 48 3d db d4 57 3d
       0.0134706395 -0.014235266 0.048888437 0.05269323
0001b0 b9 91 1a be 0c 6c 62 3c 6c 43 2b bd a6 95 d3 3c
       -0.15094651 0.013819706 -0.041812345 0.025828194
0001c0 f2 f0 38 bd 81 7f aa bb 68 ef 43 bc 97 e4 86 3c
       -0.04515166 -0.005203188 -0.011958934 0.016466422
0001d0 7a 7d 32 3d d2 be 88 3c 6c 87 0b 3d ea cf bd bd
       0.043576695 0.016692553 0.034064695 -0.09268172
0001e0 0f 3f dc 3d 62 d7 f7 bd f5 26 b2 bd 43 87 c8 bc
       0.10754215 -0.12101628 -0.08698837 -0.02447856
0001f0 e8 97 5f be 54 48 9a bd ca 0f 81 ba 9a e1 17 3e
       -0.21835291 -0.07533327 -0.0009846624 0.14832154
000200 c1 fe ea bd 75 9f 93 bc 4b 35 b3 ba 44 05 06 be
       -0.11474372 -0.018020371 -0.0013672499 -0.13087946
000210 d2 a3 18 3d b4 ff ac bd ac 60 92 3c 48 f6 39 bb
       0.037265606 -0.08447209 0.017868362 -0.0028375555
000220 f5 45 30 bd 66 c9 ca bd 2b 93 ab 3d b1 92 79 be
       -0.043035466 -0.09901695 0.083776794 -0.24372365
000230 89 5c 3a bd 47 85 17 3e 43 c1 36 bd c6 8f 84 bd
       -0.045498405 0.14796935 -0.044617902 -0.06472735
000240 a2 ed 95 3d bf f6 ab 3c e0 51 93 bd 7d f6 db bd
       0.073207155 0.020991681 -0.07193351 -0.10740373
000250 6b 61 57 3b 4f 85 7d 3d 0a db 23 3e 6d 2d 42 be
       0.0032864462 0.06189471 0.16001526 -0.18962641
000260 ff 30 a2 3d 95 da 70 3c 39 1e b6 bd 07 60 ec bb
       0.079195015 0.0147005515 -0.08892483 -0.007213596
000270 ac 16 c4 3d 95 a8 6a be f7 3e 9f bd 17 d1 7d bc
       0.09574637 -0.22915871 -0.077756815 -0.015491745
000280 36 4f 26 3e 7a f1 12 be b0 b0 b8 3d 2b 05 c9 3c
       0.16241154 -0.14349928 0.090180755 0.024538597
000290 4b a6 98 3c 52 86 05 be bb 23 db bd 8a cc f1 3b
       0.018633982 -0.1303952 -0.107001744 0.0073791193
0002a0 77 5b a7 bd c2 42 2e bc 90 9d 3d 3d 16 ad e2 bd
       -0.081717424 -0.0106360335 0.04629284 -0.1106817
0002b0 b0 f3 a3 3d 9f d1 7c bc a5 0f fb bc ea 37 04 bb
       0.08005464 -0.015430837 -0.030647108 -0.002017493
0002c0 65 4a 73 3d 28 33 64 bd fd a5 a4 3d 97 3b 75 3d
       0.05939712 -0.05571285 0.08039472 0.059871282
0002d0 bf 86 98 bd 51 d5 21 bd e8 d1 fe 3d 42 aa 84 3d
       -0.07447576 -0.039510075 0.1244238 0.064777866
0002e0 6e b1 aa bd d0 b0 33 3d ce c8 92 3d 8f 44 1a be
       -0.08334623 0.043869793 0.07167207 -0.15065216
0002f0 93 65 1d 3e ab 83 5d bd fa 4f b2 3b c7 8a 05 be
       0.15370779 -0.054080646 0.005441663 -0.1304122
000300 47 22 46 3c 1b 62 e9 3c 31 41 d9 bd 8c 23 0b 3e
       0.012093133 0.028489163 -0.106081374 0.13587779
000310 05 32 30 3d de 91 76 be 3d 2f de 3d 22 84 f8 3c
       0.043016452 -0.24079081 0.10848854 0.030336443

bias f4 [4]
000000 f8 42 89 bc d8 7e 7e 3b 86 1f 15 bd 0e 6c 32 bc
       -0.016755566 0.003883293 -0.036407016 -0.01089002

weight f4 [4]
000000 7a 2f 7c 3f 65 04 8d 3f d8 6d 96 3f f4 89 96 3f
       0.98509943 1.1016966 1.1752272 1.176085

bias f4 [4]
000000 75 06 62 bb 51 5d 17 bb bd 36 30 3c 90 b4 11 3e
       -0.0034488712 -0.0023096392 0.010755238 0.14229035

running_mean f4 [4]
000000 78 d2 af 3f 36 5c 8a bf 1c df bc bf f2 ee 15 bf
       1.3736105 -1.080939 -1.4755588 -0.58567727

running_var f4 [4]
000000 b0 ec 66 3d 29 4a 80 3d 94 d0 a5 3d 66 97 a3 3d
       0.056378067 0.06264145 0.08096424 0.07987861

weight f4 [8, 4, 2, 2]
000000 42 0b 47 3d 32 2f 6d 3e b2 1b 59 ba 12 a8 8a be
       0.04859472 0.23162535 -0.000828202 -0.27081352
000010 d0 17 2d be 68 c8 86 3e 67 1c b0 bd 30 63 94 be
       -0.16903615 0.26324773 -0.08599167 -0.28981924
000020 c7 e7 a4 3d 1c 26 86 3c 5e 39 ac 3e 66 c0 65 3e
       0.080520205 0.016375594 0.33637518 0.22436675
000030 67 23 a7 bb 13 7d 2e be af 73 61 3e db 39 49 3d
       -0.005100656 -0.170399 0.22016786 0.04912744
000040 6a cc 2e bd e8 c7 69 3e 34 03 d0 3d a2 a8 25 be
       -0.042675413 0.22830164 0.10156861 -0.1617761
000050 b6 d2 4f 3c 00 83 e8 3d 37 29 46 3e 54 43 8c be
       0.012684515 0.11353111 0.1935166 -0.27395117
000060 f3 3c 16 3e 87 ec ca 3d b3 9e 98 3c 48 8d 57 3b
       0.14671688 0.09908395 0.018630361 0.0032890607
000070 9f 7b 5a be 9d 7c a1 3d dd 17 f5 3d c7 1e 9e ba
       -0.2133622 0.07885096 0.11967442 -0.0012063616
000080 10 e4 93 bd 87 b5 fb bd 30 8c 9d 3c 80 c8 7b be
       -0.07221234 -0.12290483 0.019231886 -0.24588203
000090 d6 38 83 3d 43 4f 0c 3d f6 48 13 be 25 2d 6b be
       0.06407325 0.034255277 -0.14383301 -0.2296644
0000a0 07 ad f5 3d 96 6f 83 3e 19 88 20 be 60 20 b5 3d
       0.11995893 0.2567107 -0.15676917 0.08844066
0000b0 49 b8 32 be f7 c7 87 bd 2d 83 8f 3e 0b 29 7e be
       -0.17453112 -0.06629937 0.28029767 -0.24820344
0000c0 2a e2 13 bc a2 b6 a4 bd 88 70 c5 3c 4f 53 51 be
       -0.00902609 -0.08042647 0.02410151 -0.20441936
0000d0 f5 80 55 3d b7 d3 30 3d 32 e1 81 bd 27 38 3b be
       0.052124936 0.043170657 -0.06341781 -0.18283139
0000e0 2a 09 0e 3e b1 26 38 3e ec a0 0a be f2 ec 96 3d
       0.13870683 0.1798351 -0.1353795 0.073694125
0000f0 69 a2 65 3e ff 67 88 be b0 64 07 be 28 40 8b 3d
       0.22425236 -0.26641843 -0.13222003 0.06799346
000100 e6 cb 1b 3e e3 a0 c1 bd d6 89 09 be ea 31 a1 3d
       0.152145 -0.09454515 -0.13431486 0.078708485
000110 0e 27 de bc c0 f3 d8 bd 10 0d 49 bd d5 58 f2 3c
       -0.027118232 -0.105933666 -0.049084723 0.029583374
000120 a4 65 d1 3d 01 86 e9 bd 84 4a 50 3d ce 1f 92 be
       0.102244645 -0.11402512 0.050852314 -0.2853989
000130 ed 86 48 be 5a da 2d bd 84 49 81 3e 2a dd 02 3e
       -0.1958272 -0.042444564 0.252514 0.1277968
000140 d6 4c ba bd f8 29 55 bd 39 cc 3d be 5b cc 1f be
       -0.090966865 -0.052041978 -0.18534936 -0.15605299
000150 d1 b2 41 be b1 21 59 bd 64 41 9f bd c9 95 2c be
       -0.1891587 -0.053010646 -0.07776144 -0.16854014
000160 45 1f 9f 3d 88 49 19 be 93 b9 7a bd f6 b5 21 be
       0.07769636 -0.14969456 -0.061212134 -0.15792069
000170 31 bc 54 3e cf 18 4b be 98 88 15 3e bd a6 88 bd
       0.20774914 -0.19833682 0.14602888 -0.06672428
000180 ac fb 1a 3e 0a 5b 83 3e 70 48 fc bc 12 89 7d be
       0.15135068 0.25655395 -0.03079626 -0.2475932
000190 d6 fb 40 3d e0 8c 65 3e b9 2d cd 3e b6 4f b0 be
       0.04711517 0.22417021 0.40073946 -0.34435815
0001a0 ec c6 2a 3e 73 62 92 3d ca 9d d1 3c 47 65 cb bc
       0.16677445 0.07147684 0.025587935 -0.024828566
0001b0 af 3f c6 bd dc 9e 69 3b dd 30 b2 3d 6f 91 25 bc
       -0.096801154 0.0035647666 0.08700726 -0.010105475
0001c0 66 c8 16 bc 6e d3 16 3b e4 ac 9c bc 5b d7 17 3e
       -0.009203052 0.0023014206 -0.01912541 0.14828245
0001d0 0c 3b 0c 3c 74 64 e9 bb a4 df 74 3c 68 2c b9 3d
       0.008559 -0.0071225706 0.014945898 0.09041673
0001e0 a9 fd 16 bd a0 d6 be 3d 4e 42 57 3e ac 5e b6 be
       -0.036863003 0.0931828 0.21021387 -0.35619104
0001f0 5a 7e 65 3e 69 2d 40 be b8 32 a4 bd 36 e9 49 3e
       0.2241148 -0.18767323 -0.08017486 0.19717869

bias f4 [8]
000000 b0 54 c9 3b 9e ce 87 3a 59 24 4a bc 15 7a 4c 3c
       0.0061441287 0.0010361259 -0.0123377675 0.0124802785
000010 a2 e6 ee 3b 62 82 bf bb c5 9c 3d 3c b8 8a 57 3b
       0.007290677 -0.0058444003 0.011573021 0.003288908

weight f4 [8]
000000 b2 61 a7 3f 08 52 db 3f 9c 91 dd 3f 21 d6 05 40
       1.3076689 1.7134409 1.7310061 2.0911944
000010 98 bd cf 3f 40 4b e7 3f d6 28 c2 3f a1 9c a2 3f
       1.6229734 1.806984 1.5168712 1.2704049

bias f4 [8]
000000 f4 64 fc 3d 14 7e 8b bc f1 87 f8 3e 3e e5 f5 3e
       0.12323943 -0.017027892 0.48541215 0.4802646
000010 c2 92 23 bf 11 fd 38 bf b4 c2 ac 3e 08 c8 50 3d
       -0.6389581 -0.7226115 0.33742297 0.050972015

running_mean f4 [8]
000000 84 70 02 3f c1 70 72 3f 09 6a e2 bf 49 c8 85 bf
       0.50952935 0.947033 -1.7688609 -1.0451747
000010 56 ce 9b be 40 f9 0d c0 d3 b8 7f 3f ef ca b9 3e
       -0.3043086 -2.218338 0.99891394 0.3628764

running_var f4 [8]
000000 2d 0c 26 38 a6 8b 8c 37 1b 6d 04 39 08 6f 55 38
       3.9588824e-05 1.675433e-05 0.00012629146 5.0886563e-05
000010 5a 92 86 37 d3 a9 aa 38 b0 d5 f0 37 76 2b 9e 36
       1.6042195e-05 8.137864e-05 2.8709735e-05 4.7138265e-06

weight f4 [4, 8]
000000 90 a6 42 3e 5a 04 04 bf 07 5b 8b 3f 22 15 69 bf
       0.19008851 -0.5156914 1.0887154 -0.9104787
000010 56 6a f7 bf ee 01 98 be 98 3c 90 3e 8b 68 50 3d
       -1.9329326 -0.29688972 0.2817123 0.05088095
000020 18 ca 22 3e 2f ca 1a 3f 40 d8 11 bf be 12 f8 3e
       0.15897405 0.6046476 -0.56970596 0.484518
000030 09 9a d0 3e 97 05 84 3f dc 6d 5f bf 91 82 94 bf
       0.4074252 1.0314206 -0.8727701 -1.1602346
000040 03 81 08 3f aa 29 9c be 5d 82 32 3f 93 31 92 bf
       0.53321856 -0.30500537 0.6973017 -1.1421379
000050 11 5f 3b bf 15 3a 47 3e 7f 59 cc 3e 4d 78 ad 3e
       -0.73191935 0.1945575 0.3991203 0.33880845
000060 1a 51 77 bf 37 32 63 3f 06 a1 d9 3c b3 6f 6f bd
       -0.96608126 0.88748497 0.02656604 -0.058456134
000070 92 1d f0 3e 82 93 7b 3f b6 c0 34 bf 5c 5f 23 be
       0.4689756 0.98271954 -0.70606554 -0.15954345

bias f4 [4]
000000 d6 82 b8 bd e9 a0 0a 3f 06 1b 0a be 19 a6 39 3f
       -0.0900933 0.5415178 -0.13486871 0.7251907

weight f4 [1, 4]
000000 91 36 4c 40 8d a7 b9 bf a3 84 f4 3f eb c3 d5 3f
       3.1908305 -1.4504257 1.9102978 1.6700414
